…
  File "/home/cs/Documents/venvs/pymarl-cqmix/lib/python3.6/site-packages/torch/nn/modules/module.py", line 489, in __call__
    result = self.forward(*input, **kwargs)
  File "/home/cs/Documents/venvs/pymarl-cqmix/lib/python3.6/site-packages/torch/nn/modules/batchnorm.py", line 76, in forward
    exponential_average_factor, self.eps)
  File "/home/cs/Documents/venvs/pymarl-cqmix/lib/python3.6/site-packages/torch/nn/functional.py", line 1619, in batch_norm
    raise ValueError('Expected more than 1 value per channel when training, got input size {}'.format(size))
ValueError: Expected more than 1 value per channel when training, got input size torch.Size([1, 4])
Out[3]: 
Policy(
  (bn0): BatchNorm1d(4, eps=1e-05, momentum=0.1, affine=True, track_running_stats=True)
  (linear1): Linear(in_features=4, out_features=128, bias=True)
  (bn1): BatchNorm1d(128, eps=1e-05, momentum=0.1, affine=True, track_running_stats=True)
  (linear2): Linear(in_features=128, out_features=128, bias=True)
  (bn2): BatchNorm1d(128, eps=1e-05, momentum=0.1, affine=True, track_running_stats=True)
  (V): Linear(in_features=128, out_features=1, bias=True)
  (mu): Linear(in_features=128, out_features=1, bias=True)
  (L): Linear(in_features=128, out_features=1, bias=True)
)
/home/cs/Documents/venvs/pymarl-cqmix/lib/python3.6/site-packages/torch/nn/functional.py:1320: UserWarning: nn.functional.tanh is deprecated. Use torch.tanh instead.
  warnings.warn("nn.functional.tanh is deprecated. Use torch.tanh instead.")
Out[4]: 
(tensor([[0.0603]], grad_fn=<TanhBackward>),
 None,
 tensor([[103.4218]], grad_fn=<AddmmBackward>))
Out[6]: 
Policy(
  (bn0): BatchNorm1d(4, eps=1e-05, momentum=0.1, affine=True, track_running_stats=True)
  (linear1): Linear(in_features=4, out_features=128, bias=True)
  (bn1): BatchNorm1d(128, eps=1e-05, momentum=0.1, affine=True, track_running_stats=True)
  (linear2): Linear(in_features=128, out_features=128, bias=True)
  (bn2): BatchNorm1d(128, eps=1e-05, momentum=0.1, affine=True, track_running_stats=True)
  (V): Linear(in_features=128, out_features=1, bias=True)
  (mu): Linear(in_features=128, out_features=1, bias=True)
  (L): Linear(in_features=128, out_features=1, bias=True)
)
Out[7]: tensor([[0.0603]], grad_fn=<TanhBackward>)
Out[8]: tensor([[0.0603]])
Out[10]: tensor([[-0.0136]], grad_fn=<AddBackward0>)
